checkpoint/ckpt.pth (torch, 817199 bytes, 40 tensors)

encoder.weight f4 [128, 3]
000000 83 20 ab be e4 6d 15 3f 4a ca e0 be 3c 61 42 bf
       -0.33423242 0.58370805 -0.43904334 -0.7592962
000010 8c 31 8f 3e e6 15 29 3e ce 0e 97 3e ba 50 92 be
       0.2796749 0.1651226 0.29503483 -0.28577214
000020 d9 6e 46 bf c0 70 73 bf ab b1 4f 3e ce 7d 58 3f
       -0.7751289 -0.9509392 0.20282619 0.8456696
000030 7c c3 06 3d ab 42 1a bf 24 58 09 bf 88 1f 0f 3e
       0.032901272 -0.6025798 -0.53650117 0.13976872
000040 f0 f6 06 3f 4f 64 47 bf 27 c0 38 bf 7e 06 7b 3f
       0.52720547 -0.77887434 -0.721682 0.9805678
000050 63 06 74 be 4a ed ba be f9 9a 4c 3f 36 cf 06 bf
       -0.23830561 -0.36509162 0.7992397 -0.5265993
000060 2d 80 d1 3e 39 66 26 3f 50 ef 01 bc 24 59 34 bf
       0.40918103 0.6499973 -0.007930592 -0.7044852
000070 4c ee 6d 3f bf 5c bd be 73 50 cf be b6 d2 29 3f
       0.9294174 -0.36984822 -0.40491065 0.66337144
000080 9f a6 ef 3e 11 83 d1 bc b6 1d c8 3e a3 30 0e bf
       0.4680681 -0.025575193 0.39085168 -0.55542964
000090 80 56 5f bd 87 2d 61 be ee 58 1a bf 79 2a 08 3f
       -0.054525852 -0.21990024 -0.60291946 0.5318981
0000a0 e1 47 b7 3e ff ad c7 be 80 ed ef 3e 9b 7c ae bd
       0.35797027 -0.38999936 0.46860886 -0.0851986
0000b0 21 95 ff be dc 97 8e bc 7c d5 38 3f 07 5d 0e bf
       -0.49918464 -0.017406397 0.7220075 -0.556107
0000c0 3b 5e 6b 3d 98 e3 fa 3d 13 ad a9 3e f6 12 18 3f
       0.057462912 0.12250441 0.33139858 0.5940393
0000d0 8f 0d c6 be 5f 62 8e be e5 ed af 3d b8 dc af 3e
       -0.3868222 -0.27809426 0.08590297 0.34348083
0000e0 3e b4 b5 3d 7e 62 ec be 46 28 a2 be b1 5a 7b 3e
       0.08872269 -0.46168894 -0.3167135 0.24546315
0000f0 92 cb 12 bf 7b 78 70 be 33 83 05 3f d1 0f 61 be
       -0.57341874 -0.2348346 0.5215332 -0.2197869
000100 de 6c 0c bf 0c d6 91 be 8d eb bf be 6f 19 95 3d
       -0.5485362 -0.28483617 -0.37484398 0.07280242
000110 98 7e 60 be a8 e5 ca be 2a dc 29 bf 31 71 ab 3e
       -0.21923292 -0.3962834 -0.6635157 0.33484796
000120 5c 77 27 3f e1 1d 36 3e 74 c4 92 3d 92 19 10 3f
       0.654165 0.17784835 0.07166377 0.5628902
000130 89 38 cd 3e 57 eb d0 bd af ec 27 3f 55 6c 04 bf
       0.40082195 -0.102011375 0.65595526 -0.517278
000140 e2 3a ea be 52 29 0a bf 2a 5a ba 3e 9a d5 d5 3e
       -0.4574805 -0.539693 0.36396915 0.41764528
000150 90 de a5 bd 20 a9 eb 3b d9 74 a4 be 39 e1 05 3f
       -0.08099091 0.007191792 -0.32120398 0.5229679
000160 c3 c1 25 3f c6 ab 20 bf ce b1 f4 3e 20 be 40 3e
       0.6474878 -0.62762105 0.47791904 0.18822527
000170 14 a9 1d bf 72 16 f5 3a 1a a0 42 3f 3e 5f 35 bf
       -0.6158612 0.0018698706 0.76025546 -0.70848453
000180 e4 2b 47 bf 66 95 cc 3d a9 29 b2 3e 86 a2 07 3f
       -0.77801347 0.09989433 0.3479741 0.52982366
000190 a3 96 3d be 47 e1 ee 3e a0 02 7d be b5 df 06 bf
       -0.18514495 0.46656248 -0.24708033 -0.526851
0001a0 aa 37 48 3f 50 ac a5 be 63 d2 3a bd ff d3 c5 be
       0.78209937 -0.32358027 -0.045610797 -0.38638303
0001b0 05 1b 09 bf 6f ce 34 3f b3 4e 47 bf 75 77 09 3f
       -0.53556854 0.7062749 -0.7785446 0.536979
0001c0 51 52 6a bf 7e d6 e8 3e 8a fe 7d 3f c3 f7 40 bf
       -0.91531855 0.45476145 0.9921652 -0.75378054
0001d0 f1 6d 98 be e5 c7 21 3f bf 2f 60 bd ff 19 3c 3d
       -0.2977138 0.6319564 -0.054733034 0.04592323
0001e0 9a 6c 61 3f 1c 59 0a bf 2a 5e cb be b6 82 22 be
       0.8805634 -0.5404222 -0.3972028 -0.15870175
0001f0 fc 2e 64 be 45 05 2b 3f fe c5 f4 be 76 a0 b8 be
       -0.22283548 0.66804916 -0.47807306 -0.36059922
000200 6d e6 84 bd c1 6e 4c bf da 33 15 3e 43 84 44 3f
       -0.06489263 -0.798565 0.14570561 0.76764315
000210 56 81 eb 3e 01 3a c2 3d af 32 e4 be 14 90 01 3f
       0.45997113 0.094837196 -0.4456992 0.5061047
000220 99 ba a8 3e fc 2b bd be da 94 ac 3d dd 61 75 3c
       0.32954863 -0.3694762 0.08426829 0.014976946
000230 89 8e 3a bc 94 a2 cc 3e fa 6b 9b 3e b5 72 10 bf
       -0.011386522 0.39967787 0.30355817 -0.5642503
000240 e0 d3 0f bf aa fa 4a 3f 60 34 2d be c1 3b 38 be
       -0.5618267 0.79288733 -0.1691451 -0.17991544
000250 ca 4a d2 bc 49 08 32 3f 62 54 f4 3e ab d4 b7 3d
       -0.025670428 0.6954389 0.4772063 0.0897611
000260 d2 0c 3e bf bc a0 2c bd 61 b4 c2 3e 44 73 1a 3f
       -0.7423831 -0.042145476 0.38028243 0.6033213
000270 0c b8 bc 3e ad ea 3a 3d a3 1b 5b bf a0 b6 bc bc
       0.36859167 0.04563396 -0.85589045 -0.023036301
000280 2f 8d 97 3e e0 da db be 45 59 54 3e 19 45 ef 3e
       0.29599902 -0.42940426 0.20737179 0.46732405
000290 8d b5 79 3e fd 0b 11 3b 3e fb 47 bd a7 e8 3a 3f
       0.24385662 0.002213239 -0.048823588 0.7301125
0002a0 80 bc 08 bf 74 b2 1e be 60 b7 3b 3c b2 d4 cb 3e
       -0.5341263 -0.15497762 0.011457294 0.3981071
0002b0 c8 50 ca 3d 7b 02 1b bc 9e 09 51 3f 42 9b c8 3d
       0.09878689 -0.009461041 0.816553 0.09795238
0002c0 13 3b 35 be 53 40 28 bf e1 34 b6 be ae 1d 40 3f
       -0.17698316 -0.6572315 -0.35587218 0.7504529
0002d0 04 2f 4f bf 43 d6 9d 3e 16 1c f7 3e af 54 9d 3e
       -0.80931115 0.3082753 0.48263615 0.3072867
0002e0 22 ff 10 bf 60 4c db bd 33 c7 52 3f a5 ca 8d be
       -0.566393 -0.10707927 0.82335204 -0.27693668
0002f0 80 58 14 bf f7 5b e6 bd 9f ff eb 3e 80 d0 90 3e
       -0.5794754 -0.1124801 0.4609346 0.28284073
000300 90 81 66 be 20 ee 81 be 08 00 cd be 56 da cc be
       -0.22510362 -0.25376987 -0.40039086 -0.40010327
000310 2f 6e 27 3e fe 40 02 3f bf 76 ea be 4e 57 94 be
       0.16350625 0.5088042 -0.4579372 -0.28972858
000320 7e 79 b7 be 3f 1a b5 3e 01 ca 08 3f 17 d2 29 be
       -0.3583488 0.35371587 0.53433233 -0.16584049
000330 94 70 4e 3e 86 6b 52 bf fe 35 d4 3d 9d 13 2d bf
       0.20160133 -0.8219532 0.10361861 -0.6760805
000340 c3 46 03 3f e2 95 f2 bc 84 dc a9 be 80 2f 30 bf
       0.5127985 -0.029612485 -0.33176053 -0.6882248
000350 92 84 57 bc 9b ef e8 3e b6 b7 04 3f 8a 64 0e 3e
       -0.013154166 0.45495304 0.5184282 0.1390554
000360 43 41 b7 3e 38 04 f7 bd 2c 27 8a 3e 2e 16 e0 be
       0.35791978 -0.120613515 0.2698301 -0.43766922
000370 5c c9 86 be 0d a6 cf 3e c6 6d 3b 3f 9f 73 5f bf
       -0.263255 0.40556374 0.73214376 -0.872858
000380 14 a1 8d 3e 5a a1 06 3f 44 b0 29 be 46 94 0b bf
       0.27661955 0.5258995 -0.16571146 -0.5452312
000390 67 15 dc 3e 2f ac 7b bc 05 c0 fc be a9 32 71 bf
       0.4298508 -0.015360876 -0.4936525 -0.94217926
0003a0 a3 01 08 3f e4 9d f7 3e dd d2 03 be fd 7a f7 3e
       0.531275 0.48362648 -0.12873407 0.4833602
0003b0 41 bf a5 3e cc b0 2d be b7 d1 6a be c0 6a cb be
       0.32372478 -0.16961974 -0.22931562 -0.3972988
0003c0 62 a0 db 3e 10 9e 7e bf da 65 ea 3e c7 c8 66 bd
       0.428958 -0.99459934 0.45780832 -0.05634382
0003d0 61 00 92 3e ad 52 96 bd 0f 97 20 bf 1a 48 fb be
       0.28515914 -0.07339988 -0.627305 -0.49078447
0003e0 89 96 2b 3f 6c 59 0b bf 54 c7 a0 3e 17 c6 cb 3e
       0.67026573 -0.5443332 0.31402075 0.39799568
0003f0 b8 81 da 3e f0 af ba bc 5c 43 be 3e 60 93 84 3e
       0.42677093 -0.022788972 0.37160766 0.25893688

encoder.bias f4 [128]
000000 92 14 f0 3d 66 69 43 3f 74 ae 85 3f 03 55 a4 bd
       0.117226735 0.763327 1.0443864 -0.08024027
000010 78 b9 a2 3f 83 ec 80 bd 87 40 3a 3f f0 9c 1a bd
       1.271285 -0.06295111 0.7275471 -0.037747324
000020 40 a4 3b 3d 6b 37 93 bd 89 3e 5d 3f 50 e7 0b 3c
       0.045810938 -0.071883045 0.86423546 0.008539036
000030 10 19 98 be 06 04 bf 3e f7 6f 8e 3d 73 c9 39 bf
       -0.2970662 0.37307757 0.06954949 -0.7257301
000040 48 ec 5b 3f a5 4c d1 3d c4 9a be 3e bb f2 17 3f
       0.8590741 0.10219697 0.37227452 0.5935475
000050 e7 a5 62 3f 1d f8 7e be fe 66 94 3d 9f 54 a1 bf
       0.88534397 -0.24899335 0.07246207 -1.2603949
000060 0c cf 8e 3e 3a 60 02 bf 86 41 75 bf fa 70 93 3e
       0.2789234 -0.5092808 -0.95803106 0.28797132
000070 2f a4 2b bf ba 65 15 3f 9d b7 aa be d5 1b b2 3d
       -0.670474 0.5835835 -0.3334321 0.08696715
000080 eb c9 b9 bc b9 05 21 3f 8a bb d2 bd 7b 05 8f bf
       -0.02267929 0.6289936 -0.102896765 -1.1173548
000090 16 57 6e bf ba 4b 26 be ab 35 74 3d 2b 62 39 3e
       -0.9310163 -0.16239825 0.059621494 0.18103854
0000a0 76 fa 2f bd ae ca e9 3e 7e c6 3b 3f 57 5e d0 3c
       -0.042963468 0.45662445 0.7334975 0.02543561
0000b0 60 94 f1 3d a7 17 2a bf 03 ed 03 c0 96 7d b6 bf
       0.117958784 -0.6644234 -2.061341 -1.4257076
0000c0 58 64 da 3d 09 39 ed 3e f7 72 f9 3e e8 a5 ab bf
       0.1066367 0.46332577 0.48720524 -1.3410006
0000d0 c0 50 94 bf e7 22 90 be 7e ed 9f bf ac ed 82 bd
       -1.1587143 -0.28151628 -1.2494352 -0.063929886
0000e0 e3 fa 1e 3f ce b1 e7 3e d7 f8 3c 3e 95 20 5b be
       0.6210157 0.45252842 0.184543 -0.21399148
0000f0 17 c7 7c 3d 2d 1a 12 3f c1 ea 2f bf d4 3b 5d bf
       0.061713304 0.5707119 -0.6871758 -0.86419415
000100 df 36 b4 bf 2d 2b b1 3d 5b d3 cd bf 40 0a d5 3f
       -1.4079245 0.08650813 -1.6080126 1.6643753
000110 ac 9a b0 3e 6b 9b 44 3f 83 c9 9a 3e 26 65 82 3f
       0.34493005 0.7679965 0.30231866 1.0187118
000120 16 28 0d 3e fe ad 4e be 95 68 9e bd a7 25 00 bd
       0.13784823 -0.2018356 -0.07734791 -0.031285908
000130 70 8c 0d bd 96 6a a3 be 11 82 22 3f 67 b6 05 3e
       -0.03455776 -0.31917256 0.63479716 0.13057862
000140 da 29 19 3d b6 37 c1 3f e7 27 0f bf 70 a4 3e bf
       0.03739343 1.5095127 -0.5592026 -0.7446966
000150 58 83 88 bf 43 6f 8f bc 6a d5 7f 3c af ba e3 3c
       -1.0665083 -0.017509108 0.015614847 0.027798979
000160 28 30 b7 3d 3a 6f ae 3e 19 be 9c bd 7a 17 2f 3e
       0.08944732 0.34069234 -0.07653446 0.170988
000170 70 d6 bd 3d 05 b8 27 3f dd ad 9c be 3c fa 85 3c
       0.09269416 0.65515167 -0.30601397 0.016354673
000180 76 bd 0a be e4 ff 82 be 40 e8 00 3e 08 23 9b 3d
       -0.13548836 -0.25585854 0.12588596 0.07575041
000190 8c a1 bc 3d da dc da be c9 f1 e9 be 1f 80 19 3f
       0.092105 -0.4274662 -0.4569228 0.5996112
0001a0 a3 71 79 3f a6 53 ba 3c 80 13 57 bf 04 df 37 bf
       0.9743902 0.022744965 -0.8401413 -0.7182467
0001b0 2e 1b 17 bf d3 81 a5 be ad 97 dd be 22 bb d4 bd
       -0.5902585 -0.3232561 -0.43279782 -0.10387255
0001c0 24 06 82 be e4 90 84 3f 2a 12 81 3d c9 74 1e bd
       -0.2539531 1.0356717 0.06302293 -0.038685594
0001d0 57 b8 0c 3f 97 df 06 be 24 dd 69 3c e2 9e e3 3f
       0.5496878 -0.1317123 0.014273915 1.7782862
0001e0 40 57 e6 3e ba f2 3d bb 9c ac 3a be de 87 3a 3d
       0.4498844 -0.0028983788 -0.18229908 0.04553973
0001f0 de bd 97 be 33 e5 a7 be 4d b3 1c 3f c3 f0 2d bf
       -0.29637045 -0.32792053 0.6121109 -0.679455

s4_layers.0.D f4 [128]
000000 69 61 81 bf b2 f1 ac bf d4 41 d0 bf 03 48 d1 3f
       -1.0107852 -1.351126 -1.6270089 1.6350101
000010 f6 c8 96 be 71 35 9a bf 00 55 e9 bf 09 b8 45 be
       -0.29450196 -1.2047559 -1.8229065 -0.19308485
000020 72 3b 88 3e 20 9e 79 bf 9f 96 10 c0 07 ee bc 3d
       0.26607853 -0.97506905 -2.2591932 0.092250876
000030 c5 9c 8e 3d 90 89 98 be 8d ce 61 bf 18 98 b8 3f
       0.06963495 -0.29792452 -0.88205796 1.4421415
000040 35 0c 81 be e5 d4 c1 be b8 4a 3e 3f 58 9e 3a 3e
       -0.25204626 -0.37857738 0.7433276 0.18224466
000050 5b cc 08 c0 ba a5 6d be f3 c5 2e bf 2d d9 10 40
       -2.1374729 -0.23207751 -0.68270797 2.2632554
000060 1d ea 8e bf 71 71 30 3e 69 69 30 bf 64 d5 b4 3d
       -1.1165196 0.17230774 -0.68910843 0.088297635
000070 fb 8f 2b 3e 1b dd c7 bf 08 47 49 bf 0c 27 ea 3f
       0.16754143 -1.5614351 -0.7862401 1.8293166
000080 28 43 94 bf aa 31 03 bc 8f d2 13 bf ee 8a f1 be
       -1.1582994 -0.008007446 -0.5774316 -0.47176307
000090 80 5e cd 3e cd 9e 9d 3f bc f5 b6 3f 32 8d f8 3e
       0.4011116 1.2314087 1.4293742 0.48545223
0000a0 ab 0e 6d bf 6e a3 41 3f 3a ae 8d 3e cf 10 d5 3f
       -0.92600507 0.7564 0.27671987 1.6645755
0000b0 51 9b 26 3e 8d 81 5a 3e 73 ad 54 bf df af 50 bf
       0.16270186 0.21338482 -0.8307716 -0.8151836
0000c0 cb a1 e1 3d de 14 f7 bf 02 3d 16 3f 00 9f 53 bd
       0.11017188 -1.9303243 0.5868684 -0.051665306
0000d0 f7 f5 04 bf 13 57 9d be be 39 9c 3e f3 17 bb bf
       -0.5193781 -0.30730495 0.30512804 -1.4616684
0000e0 77 c2 44 3e bc d7 82 3e be 92 67 3f 9c bd 87 3f
       0.19214807 0.25555217 0.90458286 1.0604739
0000f0 8f 42 8b 3f d7 64 4a bd 75 55 db bd 84 a0 01 40
       1.0879687 -0.049412575 -0.10709659 2.025422
000100 29 ae b2 3e 31 fb 73 bf 4d 22 a1 be 20 7d ad be
       0.348985 -0.9530516 -0.31471482 -0.33884525
000110 17 f9 97 bf 0b 9b a4 bf ff 43 0f 3e 77 18 27 bf
       -1.1872891 -1.2859815 0.13990782 -0.65271705
000120 bc d1 ac bd 88 06 49 bf 3e ca 42 bf 7f 8b 9b be
       -0.08438441 -0.7852559 -0.7608985 -0.30379865
000130 52 75 47 bf 08 54 89 3f 66 6b 07 3f 6b 29 fe be
       -0.7791339 1.0728769 0.5289825 -0.49640974
000140 53 4b 7c 3c ca f8 ca 3d b4 24 6d bb 97 1a cd be
       0.015398818 0.09910734 -0.0036185207 -0.4005935
000150 2c 05 a1 3e 07 fe 80 3f 54 f2 e6 be bf e1 2f 3e
       0.31449258 1.0077523 -0.45106757 0.17175959
000160 2a de 80 bf e7 62 64 3f 45 e0 3d bf 65 f3 1f bf
       -1.0067799 0.89213413 -0.74170333 -0.62480766
000170 c6 31 d3 3f 74 43 b6 bf 23 27 dc 3f 4b e9 97 bf
       1.6499565 -1.4239335 1.7199444 -1.186807
000180 52 fe 7a bf 6e ca c2 be cc d3 b6 3f 64 f8 4d bf
       -0.9804431 -0.38045067 1.4283385 -0.8045714
000190 90 25 68 3f ff 2b 89 be b3 07 8f be 76 32 d3 3e
       0.90682316 -0.2679138 -0.27935562 0.41249436
0001a0 8b 6d 90 bf 13 08 26 c0 0a 01 87 3e fa d6 12 3f
       -1.128343 -2.5942428 0.2636798 0.5735928
0001b0 43 fc 4a 3d 4f bd 5e 3e 81 ac 2e 3e d0 56 a9 bf
       0.04955698 0.21751903 0.17057993 -1.3229618
0001c0 7c bb ce 3f e2 6d 5c be 0b 58 cd 3c e1 0d 12 40
       1.6150966 -0.21526292 0.025066396 2.282097
0001d0 02 c2 37 bd f4 2d b8 be 9a 11 6b 3f a5 07 11 bf
       -0.044862755 -0.3597256 0.9182373 -0.5665229
0001e0 1a b9 a7 be 82 49 4c 3f a7 72 12 bf 50 ee 12 bf
       -0.3275841 0.79799664 -0.57206196 -0.57394886
0001f0 08 ab 86 3e 0a 53 7b 3c d9 22 4a be e2 2d 01 40
       0.2630236 0.015339622 -0.19739856 2.0184255

s4_layers.0.kernel.C f4 [128, 32, 2]
000000 ef 8c 12 3c fa a8 7b 3f f6 d5 b2 3e a1 66 e4 3e
       0.008944734 0.9830471 0.34928864 0.4460955
000010 ee e8 2c bf c4 0d 99 3c a5 9b 8c bf f0 fd 58 bc
       -0.6754292 0.018683322 -1.0984999 -0.013244137
000020 54 13 ba be 07 c5 6d bf db 2c 02 bf da cd 3a bf
       -0.3634287 -0.92878765 -0.50849694 -0.72970355
000030 8e 11 b9 bf de 6d 7c 3f ba 18 f6 bc 9c 60 1f 3f
       -1.4458482 0.98605144 -0.030041087 0.6225679
000040 3f 43 79 bf eb 2d 52 be 36 84 f0 bd db 7e 8d 3f
       -0.97368234 -0.20525329 -0.11743967 1.1054338
000050 ba c1 11 bf 7a 45 08 3f 9a e1 c0 be 2b 58 8d 3e
       -0.5693623 0.5323101 -0.3767212 0.2760633
000060 49 67 39 bf d1 32 16 3f a8 b5 38 3e e8 e3 5e 3f
       -0.72423226 0.5867129 0.18038046 0.8706651
000070 e4 37 31 bf 8a 71 43 3f b4 39 5e be be b1 44 3f
       -0.6922591 0.7634512 -0.217017 0.76833713
000080 f8 8f 9d be 76 51 ad 3f fe 6c f8 3e d1 7c 1b 3f
       -0.30773902 1.3540485 0.48520654 0.6073733
000090 bb 33 0f 3e 16 6c 0f 3d 6c 08 94 bf bf e5 df 3e
       0.13984577 0.03501519 -1.156507 0.4372997
0000a0 8e ad 28 3f 3c 84 57 3d b9 ce 4b bd f1 15 4a 3f
       0.65889823 0.052616343 -0.049757693 0.7893973
0000b0 6a 2d 8e 3e 92 ac 8a 3f 16 b4 8d be b1 8a 02 3f
       0.27769023 1.0833914 -0.27676457 0.50992876
0000c0 73 d0 f7 3e a9 2a b6 bd 7f c1 bf 3e b2 41 64 3e
       0.48401222 -0.088948555 0.37452313 0.22290686
0000d0 c5 fc 71 bf 38 5a f7 3e d4 35 af 3f 02 db fa 3d
       -0.9452632 0.4831102 1.3688302 0.12248804
0000e0 18 bc 90 3e a7 91 58 3e 5e 95 66 3c c2 fc 0f 3f
       0.28268504 0.21149312 0.014073698 0.5624505
0000f0 89 3f 7f 3f 45 a7 71 bf 8e 2a 11 be 54 bf f4 be
       0.9970632 -0.9439586 -0.1417639 -0.47802222
000100 c1 b8 37 3d f3 a1 8f 2f ce 51 78 bf 60 f9 13 bf
       0.04485393 2.612662e-10 -0.96999824 -0.5780239
000110 c3 0d a0 bf 69 1e 35 3e 93 33 d1 3d 0d b8 3a bc
       -1.25042 0.17687382 0.10214915 -0.01139642
000120 ab 6a b2 be 0a 38 a7 be 80 48 b7 bf 29 76 29 be
       -0.34847006 -0.32659942 -1.4319 -0.16548981
000130 55 4d 3f bf d1 f7 21 3f ad 46 05 bf cb 87 13 be
       -0.74727374 0.6326876 -0.5206097 -0.1440727
000140 af 44 85 bf e7 46 b3 be 65 35 63 bf 2c e1 93 3e
       -1.0411586 -0.35015032 -0.8875335 0.2888273
000150 76 f6 6c be bd 8f c1 3b 1d 2d cc bf 46 92 58 3d
       -0.23140892 0.0059070275 -1.5951267 0.052873872
000160 98 0e 80 3e de 9e 60 3f 4c 48 9b bd 5a 77 1e be
       0.25011134 0.8774241 -0.07582149 -0.15475217
000170 c7 9b b6 bf dd 44 b4 bc 97 6c 49 bf 3e 83 7f 3f
       -1.426629 -0.022005493 -0.7868132 0.99809635
000180 40 d1 6a bf 85 c0 b9 bd f7 10 c7 bf 26 1c 37 3e
       -0.9172554 -0.09069923 -1.5552052 0.17881832
000190 ed 57 46 bf 68 a8 18 bf fe 6a 89 bf 14 04 13 3f
       -0.77477914 -0.5963197 -1.0735776 0.574281
0001a0 a6 a1 3c bf 47 42 dc bb 9d f1 18 be 7c d2 09 3d
       -0.73684156 -0.006721768 -0.14935918 0.033648
0001b0 3f 6f 07 3f f6 1d be 3d c1 23 27 3f 2e 1e 0f be
       0.52904123 0.09283058 0.6528893 -0.13976356
0001c0 38 b7 05 bd bb a1 60 bf b4 77 1a bf 79 54 08 bc
       -0.032645434 -0.8774678 -0.603389 -0.008320921
0001d0 b3 4e 66 bf f6 f4 a2 3d 35 7b aa bf c0 68 8b be
       -0.89963835 0.07956879 -1.331885 -0.27228355
0001e0 6d 17 21 bf ac ce a2 be 10 19 b3 bf d2 f2 06 3e
       -0.6292637 -0.31798303 -1.3992023 0.13178566
0001f0 c2 4b ff bf a9 13 14 3f 69 50 ea bf fa 43 67 3f
       -1.9944994 0.578425 -1.8305789 0.903381
000200 64 6f 0f 3e 4e 91 01 3f 44 ee 52 bf 11 1c 4b 3b
       0.14007336 0.5061234 -0.82394814 0.003099207
000210 0b 80 70 bf 06 0f 87 be 65 a1 10 be ae a3 29 bf
       -0.9394538 -0.2637865 -0.14124067 -0.6626538
000220 a0 9a ea be 0c 38 21 be 95 04 96 bf b0 0e c8 be
       -0.45821095 -0.15744036 -1.1720148 -0.39073706
000230 40 f1 6e 3e d5 1c f3 3e 2c 36 b0 be d1 0f 3e bf
       0.23334217 0.47482935 -0.3441633 -0.74242884
000240 e9 ba 7b bf b7 e8 f8 be 87 19 6b be df 19 1d 3e
       -0.9833208 -0.48615047 -0.22958957 0.153419
000250 82 fd 8d bf 91 6f 13 3e fd d3 54 bf f4 af 83 be
       -1.109299 0.14398028 -0.8313597 -0.2572018
000260 77 b1 b3 bf e1 9d 00 3f b4 09 b8 bf c1 a0 0a 3f
       -1.4038533 0.50240904 -1.4377961 0.5415154
000270 f7 90 c1 bf 50 98 25 be 10 e1 dc bf a1 34 37 be
       -1.5122365 -0.16171384 -1.7256184 -0.1789117
000280 9d 6f e1 bf d3 67 9d 3f 05 b9 9f bf e6 08 b0 3f
       -1.7612187 1.229731 -1.2478338 1.3752716
000290 5c ac fa bf 30 64 64 3f 74 ae 81 bf e1 22 11 40
       -1.958385 0.89215374 -1.0131364 2.2677538
0002a0 67 9c df 3d 25 19 d5 3f 8b b5 23 bf a0 4d 10 40
       0.10918503 1.6648299 -0.6394889 2.2547379
0002b0 26 d2 2e 3e 1c ee cd 3f 54 55 41 3f ce 2c 11 40
       0.17072353 1.608829 0.75520825 2.2683597
0002c0 bc 11 1c 3e fd e4 d5 3f 82 62 ff 3b 34 71 16 40
       0.1524114 1.6710507 0.0077937255 2.3506594
0002d0 af c9 c8 3f ae 08 1f 40 2e b4 04 40 04 11 4d 3f
       1.5686549 2.4849048 2.0734973 0.8010409
0002e0 e6 ee 81 3f 23 00 05 40 90 12 02 40 0f f6 8b 3f
       1.0151031 2.0781333 2.032383 1.0934466
0002f0 5a 12 a0 3f 9c d3 2f 3f c6 0a 95 3f 66 47 46 3f
       1.25056 0.68682265 1.1643913 0.77452695
000300 45 52 6d be fe 49 b5 b5 19 b2 06 3e 70 1c ea 3e
       -0.23175915 -1.3507085e-06 0.13153876 0.4572482
000310 47 0a 0f 3f 39 c2 3b 3f 2c 1d ba 3f 31 5e 12 3e
       0.55875057 0.73343235 1.4540153 0.14293744
000320 ee f4 0b 3f 0d 2b bc 3e 3a 6b 8a 3f 9d 82 68 3e
       0.5467061 0.36751595 1.0813973 0.22706075
000330 1c 94 ff 3f 54 b7 30 3f e1 ea 8c 3f de 95 3f 3f
       1.9967074 0.69029737 1.1009179 0.74838054
000340 b3 3e 95 3f 85 ec 7c bd 57 da 13 3f cc e1 81 bd
       1.1659759 -0.061749 0.57755035 -0.063418955
000350 9c a7 f1 be d1 4b 04 bf 84 30 be 3e 5d 87 82 3f
       -0.47198188 -0.51678187 0.3714639 1.019756
000360 ed cc d0 3e 7c f4 bc 3e 61 90 90 3f 58 6d c4 3e
       0.40781346 0.36905277 1.1294061 0.38364673
000370 04 5f 3e 3f 82 89 52 3f 08 7d e6 3f dc 9c c1 be
       0.7436373 0.8224107 1.8006907 -0.37814987
000380 15 90 d6 3f ed 18 12 3f 09 92 0f 40 34 ba 23 bf
       1.676272 0.57069284 2.2432883 -0.63956
000390 a4 ca ac 3f af 0e 39 3e 90 e8 00 3f bd 13 43 bf
       1.3499341 0.18072008 0.5035486 -0.76201993
0003a0 2c 0f d2 be 86 03 1b bf 27 20 ad be c9 d1 89 3e
       -0.410272 -0.6055225 -0.33813593 0.26917866
0003b0 ee ba 4f 3f ad 7e 46 3f 9a 7c 39 3f 98 d6 32 3c
       0.8114461 0.7753704 0.7245575 0.010915421
0003c0 1f ac 24 3f 2e ec dc 3e f0 0d 03 3f 27 a5 d6 3b
       0.64325136 0.4314894 0.5119314 0.0065504494
0003d0 2f 7d 30 3f af 25 6a 3f 9c de 11 40 41 5d 22 3f
       0.68941015 0.9146375 2.279212 0.63423544
0003e0 0d 0f d5 3f fe 61 14 3f 2c b1 49 3f d6 cf 5e bf
       1.6645218 0.57962024 0.7878597 -0.8703588
0003f0 c6 3f 38 be ee 6d 51 bf 19 1c b5 be 6a 6a 57 3f
       -0.17993078 -0.81808364 -0.35373 0.8414675

s4_layers.0.kernel.log_dt f4 [128]
000000 1f 1d 39 c0 69 04 bd c0 63 64 48 c0 cd 93 a3 c0
       -2.8924024 -5.9067883 -3.131127 -5.111792
000010 06 2c 8b c0 34 3d 91 c0 dc 79 57 c0 84 ee 9e c0
       -4.349124 -4.538721 -3.3668127 -4.9666157
000020 54 65 20 c0 3c ac bf c0 be e8 c9 c0 a3 8f 8a c0
       -2.5061846 -5.9897747 -6.309661 -4.330034
000030 ca 34 55 c0 a7 28 c9 c0 ff 07 97 c0 a5 ab 42 c0
       -3.331347 -6.2862124 -4.719726 -3.0417264
000040 27 0b 97 c0 ea cb b8 c0 1c af 71 c0 57 9e b2 c0
       -4.7201114 -5.774892 -3.7763128 -5.5818286
000050 c0 f1 6c c0 e4 3e 39 c0 1f bb 63 c0 14 a6 66 c0
       -3.7022552 -2.8944635 -3.558296 -3.6038866
000060 f6 23 7c c0 6d 58 af c0 d9 8a bf c0 3c 11 52 c0
       -3.939695 -5.479544 -5.985699 -3.282302
000070 39 bc b4 c0 e8 e7 c9 c0 61 0d 96 c0 14 38 bb c0
       -5.6479764 -6.309559 -4.689133 -5.8505955
000080 13 f1 23 c0 c2 db 9e c0 48 f4 e0 c0 4a d8 ae c0
       -2.561589 -4.964326 -7.0298195 -5.4639025
000090 60 e7 55 c0 da 6c 31 c0 04 03 ba c0 0b d6 a6 c0
       -3.342247 -2.7722688 -5.812868 -5.2136283
0000a0 9e df 31 c0 fe cb 7a c0 52 a7 40 c0 01 af d3 c0
       -2.7792735 -3.9187007 -3.0102124 -6.615113
0000b0 99 c2 a7 c0 af 75 86 c0 e2 a7 65 c0 b0 5c 4f c0
       -5.2425046 -4.2018657 -3.5883718 -3.2400322
0000c0 f2 e1 81 c0 70 cc 7c c0 b6 ac 52 c0 cf 6f 82 c0
       -4.058831 -3.9499779 -3.2917914 -4.0761485
0000d0 3c 7e cc c0 ed 28 a3 c0 7d 2a ba c0 9f 11 8f c0
       -6.3904095 -5.098746 -5.8176866 -4.470901
0000e0 34 f2 99 c0 29 ef 17 c0 07 85 7d c0 ad ed c9 c0
       -4.810816 -2.3739722 -3.9612443 -6.310263
0000f0 5e 56 d0 c0 77 23 8a c0 25 0d 99 c0 86 f1 b0 c0
       -6.510543 -4.316829 -4.7828546 -5.529483
000100 54 e5 92 c0 2d fd a6 c0 c1 d4 24 c0 34 83 6c c0
       -4.590494 -5.2184052 -2.5754855 -3.695508
000110 a2 97 a8 c0 b1 63 27 c0 eb 3f bd c0 44 5f 35 c0
       -5.26851 -2.6154597 -5.9140525 -2.8339396
000120 01 40 3e c0 9d 29 87 c0 3b e8 61 c0 bc 2d 9b c0
       -2.9726565 -4.2238297 -3.5297992 -4.849333
000130 a1 b6 71 c0 0d a6 50 c0 6b 45 24 c0 0a f5 29 c0
       -3.7767718 -3.260135 -2.566737 -2.655581
000140 7e 0a ae c0 02 e5 85 c0 07 68 93 c0 0a 28 72 c0
       -5.438781 -4.184205 -4.6064487 -3.7836938
000150 9c d3 ca c0 5c 25 dd c0 12 cf 72 c0 90 b0 ad c0
       -6.338331 -6.9108105 -3.7938886 -5.427803
000160 10 88 67 c0 74 4b ce c0 f5 9d bf c0 74 9a d2 c0
       -3.6176796 -6.4467106 -5.988032 -6.581354
000170 89 0c 66 c0 86 5c 73 c0 36 91 c1 c0 84 e6 36 c0
       -3.594515 -3.8025222 -6.048976 -2.8578196
000180 c9 df 4e c0 b5 18 84 c0 a3 fa 9a c0 5b 9f 28 c0
       -3.2324088 -4.128016 -4.8430953 -2.6347263
000190 c1 72 3a c0 2e c8 31 c0 58 2d d0 c0 ad 96 c6 c0
       -2.913254 -2.777843 -6.505535 -6.205893
0001a0 b4 d7 1b c0 ea 40 59 c0 4f ff 75 c0 16 32 ac c0
       -2.4350405 -3.394587 -3.8437078 -5.381114
0001b0 36 31 b0 c0 ce 18 bf c0 7e 57 94 c0 29 65 9f c0
       -5.506007 -5.971778 -4.63568 -4.9810987
0001c0 62 81 18 c0 63 d1 a7 c0 af 54 52 c0 81 92 9f c0
       -2.382897 -5.24431 -3.2864187 -4.986634
0001d0 3c 8a 31 c0 3e 6d 2e c0 04 bd 97 c0 57 24 b7 c0
       -2.7740622 -2.7254176 -4.741823 -5.723186
0001e0 26 be 8e c0 94 36 b3 c0 b5 5b 31 c0 54 98 9e c0
       -4.4607115 -5.6004124 -2.7712224 -4.9560947
0001f0 59 4c af c0 7d c4 73 c0 39 77 ad c0 74 27 81 c0
       -5.47807 -3.8088677 -5.4208035 -4.036066

s4_layers.0.kernel.log_A_real f4 [128, 32]
000000 ec ce 0f bf 98 ba f6 be 6f 21 38 bf 2e 55 56 bf
       -0.5617511 -0.48189235 -0.71926016 -0.83723724
000010 93 95 4c bf fd b0 2c bf d3 fa 31 bf 9b ac 0d bf
       -0.7991573 -0.6745756 -0.6952335 -0.553415
000020 b6 6c 23 bf d9 e8 42 bf 70 96 12 bf 9f be 0e bf
       -0.63837755 -0.7613655 -0.572608 -0.55759615
000030 ac 43 1a bf eb 14 6a bf 4d c6 2a bf e0 2c 16 bf
       -0.6025951 -0.9143817 -0.6670883 -0.58662224
000040 40 23 41 bf 38 b0 3b bf 27 e9 31 bf 3d c5 53 bf
       -0.7544441 -0.73315763 -0.6949639 -0.82722837
000050 7b 15 2c bf 50 37 34 bf c0 7e 35 bf 77 55 4b bf
       -0.67220277 -0.703969 -0.7089653 -0.79427284
000060 4a 44 2a bf 76 07 2e bf a6 ac 3a bf 31 69 3c bf
       -0.6651045 -0.67980134 -0.7291969 -0.7359801
000070 23 dc 0d bf b0 af 22 bf af 38 30 bf a6 a0 2f bf
       -0.55414027 -0.6354933 -0.6883649 -0.68604505
000080 bc 1b bd be a4 e4 4d bf 26 fc 17 bf 63 dc 22 bf
       -0.36935222 -0.80427 -0.59369123 -0.63617533
000090 f1 96 28 bf 32 a2 1f bf 34 05 2f bf 41 37 15 bf
       -0.6585532 -0.62356865 -0.68367314 -0.58287436
0000a0 50 f6 0d bf 1f 76 3b bf 1a 1f 06 bf 79 7c 41 bf
       -0.5545397 -0.73227113 -0.5239121 -0.75580555
0000b0 78 72 47 bf 4b 1a 21 bf 3b 71 12 bf 9f 85 1e bf
       -0.7790904 -0.62930745 -0.57204026 -0.6192264
0000c0 6b 75 16 bf dc 31 25 bf b5 67 4b bf fb 36 38 bf
       -0.58772916 -0.64529204 -0.7945512 -0.71958894
0000d0 6d de 20 bf 5e 6b 31 bf 3c b5 1b bf c0 98 16 bf
       -0.62839395 -0.69304454 -0.60823417 -0.5882683
0000e0 0d 92 48 bf 7a 10 24 bf d7 60 59 bf e7 9d 3f bf
       -0.78347856 -0.6408764 -0.8491339 -0.74850315
0000f0 59 a3 46 bf 5f 15 18 bf 13 aa 27 bf 92 34 22 bf
       -0.77593 -0.5940761 -0.6549389 -0.63361466
000100 d5 94 99 be 66 d5 51 bf 2d e6 25 bf 03 83 31 bf
       -0.29996362 -0.81966245 -0.64804345 -0.69340533
000110 51 f5 34 bf a4 c6 cd be dc de 3a bf a0 a8 1c bf
       -0.70686823 -0.40190613 -0.72996306 -0.611948
000120 fa d7 16 bf ff d8 03 bf 73 a4 28 bf e4 d6 cb be
       -0.58923304 -0.51502985 -0.6587593 -0.39812386
000130 57 c7 14 bf 33 04 11 bf c2 d2 1d bf 31 ed f4 be
       -0.5811667 -0.5664703 -0.61649716 -0.47837213
000140 f4 43 eb be 5a 23 26 bf d1 e2 d7 be 90 32 97 be
       -0.45950282 -0.6489769 -0.42165235 -0.29530764
000150 1d f5 11 bf 0c d5 30 bf f1 2b 0e bf 8b 20 da be
       -0.5701464 -0.69075084 -0.555358 -0.42602953
000160 b0 fa d2 be 17 3a ce be 32 fc 01 bf bc c2 21 bf
       -0.41206884 -0.40278694 -0.50775445 -0.63187766
000170 b7 88 ff be b1 87 f9 be 02 01 f8 be 67 a7 0b bf
       -0.49908993 -0.48736337 -0.4843827 -0.5455231
000180 7b a2 11 bf 7a b8 11 bf 25 56 06 bf ad e3 23 bf
       -0.5688855 -0.56922114 -0.52475196 -0.6401928
000190 fe 24 0e bf bf ba 26 bf 0a d5 0b bf a6 85 2c bf
       -0.55525196 -0.651287 -0.54621947 -0.6739143
0001a0 de 35 34 bf 05 86 1b bf fa 43 02 bf 5f c6 27 bf
       -0.70394695 -0.6075137 -0.50884974 -0.65537065
0001b0 aa 57 0b bf a8 7c be be 84 d8 f4 be dc 65 f0 be
       -0.5443064 -0.3720448 -0.47821438 -0.46952713
0001c0 12 b1 14 bf 45 5d 3d bf 1e 27 0f bf 3b eb 28 bf
       -0.5808269 -0.73970443 -0.55919063 -0.65983933
0001d0 66 72 11 bf fe 51 fa be d4 5d 05 bf ca b1 16 bf
       -0.56815183 -0.4889068 -0.52096295 -0.58865035
0001e0 b7 db 47 bf b6 c8 3b bf c3 d0 68 bf 86 ac 11 bf
       -0.78069633 -0.73353136 -0.90943545 -0.56903875
0001f0 68 f8 01 bf 40 f9 2c bf f0 24 24 bf 06 59 05 bf
       -0.5076966 -0.67567825 -0.6411886 -0.52088964
000200 74 50 96 bd 69 5e 30 bf 31 77 05 bf c8 2f 3c bf
       -0.07339564 -0.6889406 -0.52134997 -0.7351041
000210 cc fa 2f bf fb cb c0 be 70 84 0f bf 0c 7b 01 bf
       -0.6874206 -0.37655625 -0.5606146 -0.5057838
000220 3f 7b 17 bf 2a ed 3b bf 56 e1 33 bf 33 4f 1b bf
       -0.59172434 -0.7340876 -0.7026571 -0.60667723
000230 22 f0 45 bf 6d d6 53 bf b8 8c 14 bf a5 a8 44 bf
       -0.7731954 -0.8274906 -0.5802722 -0.7681983
000240 04 12 7c bf c0 e3 44 bf b0 b2 4e bf 2b 74 0a bf
       -0.9846499 -0.7691002 -0.80741405 -0.5408351
000250 d3 0b 52 bf 09 62 41 bf c2 6a 42 bf 26 4e 09 bf
       -0.8204929 -0.75540215 -0.7594415 -0.5363487
000260 cb e3 ab be a9 ca 4f bf db 17 23 bf 9e 75 12 bf
       -0.3357223 -0.8116861 -0.63708276 -0.5721072
000270 2a d8 2a bf 1b f7 c6 be 5a fa 43 bf 9e 7b 22 bf
       -0.6673609 -0.38860402 -0.7655388 -0.63469875
000280 c3 9a f0 be 9a 7d 26 bf c7 90 30 bf c8 2e 27 bf
       -0.46993074 -0.650354 -0.6897091 -0.6530576
000290 65 73 36 bf 78 c4 47 bf e6 db 1b bf ce 5a 31 bf
       -0.7126983 -0.7803416 -0.60882413 -0.6927918
0002a0 0e f5 ca be 5f 5e 38 bf 1d ba 17 bf fa 04 0e bf
       -0.39640087 -0.72019 -0.5926836 -0.55476344
0002b0 24 42 11 bf 92 ad 31 bf 8f 56 f6 be b7 92 2a bf
       -0.5674155 -0.6940547 -0.48112914 -0.6663012
0002c0 5c 6e 5f bf 04 a6 14 bf e3 f6 25 bf ac 86 13 bf
       -0.8727777 -0.5806582 -0.64829844 -0.5762737
0002d0 93 11 1d bf ae 75 f4 be dc af 33 bf a4 ce 03 bf
       -0.6135494 -0.47746032 -0.70190215 -0.51487184
0002e0 8e df fb be 9c e0 37 bf d9 05 14 bf a3 4e 26 bf
       -0.49193996 -0.718271 -0.5782142 -0.6496374
0002f0 dd 4c 2f bf 86 41 fd be d9 95 16 bf 53 48 3b bf
       -0.6847666 -0.49464053 -0.588224 -0.73157233
000300 bb 37 08 bf 7f ed 3d bf 95 fb 34 bf 78 4d 25 bf
       -0.5321004 -0.74190515 -0.70696384 -0.6457133
000310 02 56 40 bf 87 c1 ef be 6c ec 0a bf 79 29 ef be
       -0.7513124 -0.46827337 -0.54267 -0.4671133
000320 aa 0c 49 bf 84 ea 3d bf df 63 41 bf 44 1c ee be
       -0.7853495 -0.7418597 -0.75543016 -0.4650594
000330 ca d1 e4 bd 30 aa 22 bf a6 32 02 bf 03 a8 00 bf
       -0.111728266 -0.63540936 -0.50858533 -0.50256366
000340 2f ef c0 be a7 8c 2c bf a6 3c c9 be c8 9e 2f bf
       -0.37682483 -0.6740212 -0.39304084 -0.68601656
000350 5a 08 31 bf 25 57 73 bf b1 3a 2f bf e1 a4 25 bf
       -0.6915337 -0.95054847 -0.6844893 -0.6470471
000360 dc df 2b bf b7 bd 0e bf 95 b6 bd be ff c5 55 bf
       -0.6713846 -0.5575823 -0.37053362 -0.83505243
000370 fe da 0f bf cf dc 29 bf 02 ac fd be 34 3b 31 bf
       -0.5619353 -0.6635255 -0.49545294 -0.6923096
000380 8b 92 32 bf d2 e5 19 bf 6b 18 41 bf ea a6 3a bf
       -0.69754857 -0.601163 -0.75427884 -0.7291094
000390 7b 81 21 bf df fe 28 bf e0 65 27 bf d3 55 2d bf
       -0.63088197 -0.660139 -0.65389824 -0.6770908
0003a0 24 38 16 bf d3 61 41 bf 5e 08 21 bf eb cc 38 bf
       -0.58679414 -0.7553989 -0.6290339 -0.7218768
0003b0 a7 11 35 bf 61 d8 2d bf 8c 66 2e bf f2 0e e7 be
       -0.7073006 -0.67908293 -0.68125224 -0.4512859
0003c0 a3 d5 03 bf 13 6b 23 bf c8 27 46 bf d0 f3 46 bf
       -0.5149786 -0.6383526 -0.7740445 -0.7771578
0003d0 1b 42 15 bf 24 96 04 bf 57 45 19 bf 94 06 2a bf
       -0.58303994 -0.51791596 -0.5987143 -0.6641629
0003e0 d3 d8 3f bf 59 16 23 bf 8d 8c 29 bf c0 5d 44 bf
       -0.7494022 -0.63705975 -0.6623009 -0.7670555
0003f0 6e f8 22 bf 64 40 27 bf ce 60 48 bf 41 37 f5 be
       -0.63660324 -0.6533263 -0.7827271 -0.47893718

s4_layers.0.kernel.A_imag f4 [128, 32]
000000 51 7e 11 be bd cf 4b 40 71 f2 c7 40 bd a3 13 41
       -0.14208342 3.1845543 6.248345 9.227475
000010 6f c1 47 41 9d 68 7c 41 3d a6 95 41 fb b0 b0 41
       12.484725 15.77554 18.706171 22.086416
000020 11 2e c9 41 5b 1f e3 41 19 43 fb 41 5a 2f 0a 42
       25.147493 28.39031 31.407763 34.54624
000030 6e 22 17 42 40 25 23 42 a7 ea 2f 42 c2 16 3c 42
       37.783623 40.786377 43.979153 47.022224
000040 84 d0 49 42 fd 43 55 42 b5 53 62 42 a5 4c 6e 42
       50.45363 53.316395 56.581745 59.57485
000050 81 22 7c 42 b9 c5 83 42 65 5b 8a 42 19 84 90 42
       63.033695 65.88618 69.178505 72.258
000060 f0 7c 96 42 c1 dd 9c 42 96 77 a3 42 1d c8 a9 42
       75.24402 78.43311 81.73357 84.89085
000070 29 26 b0 42 48 1c b6 42 c4 ab bc 42 ba 99 c2 42
       88.07453 91.05524 94.33548 97.30025
000080 91 2d e1 2c 87 2c 45 40 cf db c9 40 1e 8f 16 41
       6.3999435e-12 3.0808427 6.308082 9.409941
000090 38 18 47 41 a7 81 7a 41 4a ba 96 41 bf 78 b0 41
       12.443413 15.656653 18.840961 22.058958
0000a0 18 ba c8 41 b7 79 e1 41 cc fc fb 41 31 2b 0a 42
       25.090866 28.184431 31.498436 34.54218
0000b0 37 04 16 42 4b 48 23 42 53 49 30 42 6d 09 3c 42
       37.504116 40.8206 44.071606 47.009205
0000c0 79 d5 48 42 66 07 56 42 51 21 63 42 ad a5 6e 42
       50.20847 53.507225 56.782536 59.661793
0000d0 43 75 7b 42 38 b4 83 42 b3 6f 8a 42 8e 6b 90 42
       62.864513 65.85199 69.21816 72.21007
0000e0 8f 42 96 42 cd 1f 9d 42 44 83 a3 42 cf aa a9 42
       75.13 78.56211 81.75638 84.83361
0000f0 72 4e b0 42 5d 19 b6 42 21 8f bc 42 dd 92 c2 42
       88.15321 91.04954 94.27955 97.28684
000100 06 60 a0 bd 55 55 3e 40 dd 25 c9 40 80 9a 19 41
       -0.07830815 2.9739583 6.285872 9.60022
000110 5a d3 45 41 dc 61 7c 41 67 c2 96 41 60 9d af 41
       12.3640995 15.773891 18.844923 21.951843
000120 98 36 c9 41 79 21 e2 41 48 d3 fb 41 79 1c 0a 42
       25.151657 28.266344 31.478165 34.527805
000130 ec 54 16 42 06 dc 23 42 d5 fa 2f 42 b4 5f 3d 42
       37.58293 40.964867 43.994953 47.34346
000140 4a 0a 49 42 a4 af 55 42 94 7a 63 42 bc 98 6e 42
       50.260048 53.421524 56.869705 59.649155
000150 0e 1f 7b 42 65 d9 83 42 51 1a 8a 42 65 1e 90 42
       62.780327 65.9246 69.0514 72.059364
000160 91 dc 96 42 24 16 9d 42 86 e1 a2 42 95 50 a9 42
       75.43079 78.54324 81.440475 84.65739
000170 72 38 b0 42 75 5a b6 42 38 74 bc 42 ac 99 c2 42
       88.110245 91.176674 94.22699 97.30014
000180 61 9e 18 35 58 1e 51 40 79 56 c4 40 e1 22 11 41
       5.6854884e-07 3.267477 6.1355557 9.071015
000190 a2 71 4c 41 77 0b 7f 41 5b ad 95 41 b9 2d b0 41
       12.777742 15.940299 18.709646 22.022326
0001a0 62 74 ca 41 99 d0 e1 41 15 bc f9 41 e7 fa 09 42
       25.306828 28.226854 31.216837 34.49502
0001b0 4a 4b 17 42 77 1d 23 42 98 7a 2f 42 58 47 3c 42
       37.823524 40.778774 43.86972 47.06967
0001c0 bd eb 48 42 95 72 55 42 dc 20 62 42 b6 ca 6e 42
       50.230213 53.361897 56.53209 59.69796
0001d0 b0 f1 7b 42 e1 95 84 42 de f2 89 42 44 3e 90 42
       62.986023 66.29273 68.97435 72.12161
0001e0 ff 08 97 42 eb f4 9c 42 7d 37 a3 42 35 b0 a9 42
       75.51757 78.478355 81.608376 84.844154
0001f0 fe 14 b0 42 cd 30 b6 42 c0 43 bc 42 7a 3e c3 42
       88.041 91.095314 94.132324 97.622025
000200 29 67 1f b8 50 b3 4f 40 b5 28 c6 40 45 e2 16 41
       -3.800463e-05 3.2453194 6.192469 9.430242
000210 c6 37 44 41 c7 f7 79 41 56 00 98 41 a3 67 ae 41
       12.263617 15.6229925 19.000164 21.800604
000220 23 7b ca 41 92 0a e4 41 6f b0 fa 41 85 70 0a 42
       25.310125 28.505161 31.33615 34.609882
000230 d2 df 16 42 bd 69 23 42 2d 19 2f 42 07 8a 3c 42
       37.718575 40.85326 43.774586 47.134792
000240 17 78 48 42 22 aa 55 42 0b 03 62 42 e2 ed 6e 42
       50.117275 53.416145 56.50297 59.732307
000250 8a 8e 7b 42 a2 32 84 42 a5 24 8a 42 e6 6c 90 42
       62.8892 66.09889 69.07157 72.21269
000260 e6 c6 96 42 ad d9 9c 42 fe f7 a2 42 37 a7 a9 42
       75.38847 78.42515 81.48436 84.82659
000270 a6 0b b0 42 9e 4a b6 42 c3 5a bc 42 db c1 c2 42
       88.02275 91.14574 94.17727 97.378624
000280 3a 20 24 b8 db bc 4f 40 14 e9 cb 40 00 75 19 41
       -3.913066e-05 3.2459018 6.372202 9.591064
000290 ff 39 4a 41 9b d0 79 41 5c 8e 96 41 45 3b b0 41
       12.639159 15.613429 18.819511 22.02894
0002a0 59 07 c9 41 28 58 e3 41 bd 21 fb 41 94 c1 09 42
       25.128588 28.418045 31.391474 34.43904
0002b0 a1 cf 16 42 74 61 24 42 f8 c0 30 42 1a 49 3c 42
       37.702763 41.09517 44.188446 47.07139
0002c0 87 05 49 42 be e4 55 42 bf c9 62 42 86 38 6f 42
       50.255398 53.47338 56.697018 59.8052
0002d0 89 e5 7b 42 b8 aa 83 42 a8 03 8a 42 1a 2f 90 42
       62.974155 65.833435 69.00714 72.091995
0002e0 84 d1 96 42 92 d5 9c 42 0a ee a2 42 bc c5 a9 42
       75.40921 78.41713 81.46492 84.8862
0002f0 66 d3 af 42 ec 53 b6 42 f4 37 bc 42 cc 23 c3 42
       87.91289 91.16391 94.10928 97.569916
000300 29 95 6f bd be 34 57 40 22 83 ca 40 57 38 17 41
       -0.05849186 3.3625941 6.3285074 9.451255
000310 cb 38 4a 41 25 36 7b 41 c0 6d 96 41 e4 d2 b1 41
       12.638865 15.700719 18.803589 22.227974
000320 25 63 c7 41 ff f0 e0 41 14 db fa 41 71 07 0a 42
       24.92341 28.117674 31.356972 34.507267
000330 df 22 17 42 68 a6 22 42 eb f1 30 42 d0 42 3c 42
       37.784054 40.662506 44.236248 47.065247
000340 78 f7 48 42 3d 0a 55 42 bd de 62 42 4f 31 6f 42
       50.24167 53.26 56.717518 59.798153
000350 d1 b1 7b 42 63 0e 84 42 95 13 8a 42 45 5e 90 42
       62.92365 66.0281 69.038246 72.18412
000360 7d a9 96 42 cf 9c 9d 42 b0 6c a3 42 cb 9d a9 42
       75.33103 78.80627 81.71228 84.80819
000370 ee ca af 42 58 4e b6 42 20 61 bc 42 a9 d9 c2 42
       87.89635 91.153015 94.1897 97.42512
000380 76 90 23 34 5c 9a 43 40 54 89 ca 40 ba 83 16 41
       1.5233113e-07 3.0562963 6.3292637 9.40716
000390 30 1f 46 41 7f be 79 41 78 e8 94 41 d9 db af 41
       12.382614 15.609008 18.61351 21.982347
0003a0 1b 73 c8 41 15 a0 e2 41 4c 03 fd 41 a4 e3 09 42
       25.056204 28.328165 31.62661 34.472305
0003b0 7a 5f 16 42 e9 a2 23 42 35 67 2f 42 a1 69 3c 42
       37.59324 40.909092 43.85079 47.103153
0003c0 42 3a 48 42 81 36 56 42 e7 1d 62 42 74 2c 6e 42
       50.056892 53.553226 56.5292 59.54341
0003d0 71 fa 7b 42 8a d6 83 42 af 5a 8a 42 93 d2 90 42
       62.99457 65.91902 69.17712 72.41128
0003e0 8a 0f 97 42 44 ce 9c 42 a6 5a a3 42 6a a3 a9 42
       75.53035 78.40286 81.67705 84.81917
0003f0 18 14 b0 42 ed 02 b6 42 7c 21 bc 42 13 91 c2 42
       88.039246 91.005714 94.0654 97.28335

s4_layers.0.output_linear.0.weight f4 [256, 128, 1]
000000 b3 53 12 3f 56 47 54 bd 2a 36 96 be 20 de 38 bf
       0.57158965 -0.051825844 -0.293382 -0.72213936
000010 89 59 0e 3f 89 0f bb bf c8 cc 80 be e9 97 3a be
       0.5560537 -1.4614116 -0.25156236 -0.18222012
000020 09 51 6e bf e9 bf 26 be 4a 49 7e 3f 40 e2 d3 3e
       -0.930924 -0.16284145 0.9933058 0.41383553
000030 8c 5a 31 c0 c5 e8 c2 be 35 7b 89 bf e0 43 00 3e
       -2.7711515 -0.38068214 -1.0740725 0.12525892
000040 bc 36 be be c2 f0 ce 3e 90 cc f5 be 38 80 64 be
       -0.37151134 0.4041806 -0.4800763 -0.22314537
000050 ff ae 7b be e2 d0 ec bf d2 6c e0 3e 22 c8 45 3e
       -0.24578474 -1.8501246 0.43833023 0.19314626
000060 ae 5a 2f bf 2b 9b a4 3c 0c 36 3b be 57 b7 2b bf
       -0.6849774 0.020093521 -0.18282336 -0.6707663
000070 0b 54 38 3e f1 22 65 bc 5b f4 f9 be d2 92 cb 3e
       0.1800081 -0.013985381 -0.4881924 0.39760453
000080 23 a6 d8 3e 8d b6 6c bf 0f c8 84 3d d4 c9 84 3d
       0.42314252 -0.9246605 0.06483471 0.06483808
000090 79 b3 16 bf 17 7f 92 bf 96 47 ad 3c 13 b3 54 3d
       -0.58867604 -1.1445035 0.021152299 0.05192859
0000a0 66 4b 96 bf c0 7f 7b 3f 5b 49 85 3f 6c 77 69 bd
       -1.174176 0.98241806 1.0413011 -0.056998655
0000b0 0f 7f ea bc 57 9e c8 bd d3 fa 4d bd f6 8e 24 bf
       -0.02862504 -0.09795826 -0.050288033 -0.6428064
0000c0 05 60 92 be 1f 6f aa bf a6 13 b7 be d5 90 0d bf
       -0.28588882 -1.3315161 -0.35757178 -0.5529912
0000d0 53 cc 83 bf c0 21 53 3f d7 b9 5f bb 4b 8b ba be
       -1.029673 0.82473373 -0.0034137869 -0.36434397
0000e0 d0 4e 2f 3e 4f dd 1f be cd 7f 37 3f 13 40 0a be
       0.17119908 -0.15611766 0.71679384 -0.13501005
0000f0 ef bd 3c 3e 5f 7d 7e be 95 21 78 be 36 e2 b3 be
       0.18431829 -0.24852513 -0.2423156 -0.35133523
000100 9b 02 3f 3e 8d 1f 1b bf 7c ce 4e 3f e5 d9 2e bf
       0.18653338 -0.6059502 0.8078382 -0.6830123
000110 ae ac 34 bd 9b 18 8e 3e 0c aa 25 3e 6f 39 36 3e
       -0.044109993 0.27753147 0.16178149 0.17795347
000120 3e 2c 27 bf d3 6b c5 bd d1 63 8f bf 4b 1e 43 bf
       -0.65301883 -0.096397065 -1.1202337 -0.762181
000130 45 4a b1 be 0f d2 9a bf f4 15 b8 3e f0 ae 3d 3f
       -0.34626976 -1.2095355 0.3595425 0.7409506
000140 3e 79 3f 3f 64 85 48 3e da 53 90 3e 1b 0f 41 3d
       0.74794376 0.19582134 0.28188974 0.047133546
000150 57 35 4a bf 7c 56 74 3f a2 aa b0 be f3 62 0b bc
       -0.7898764 0.95444465 -0.34505183 -0.008507478
000160 a1 8c 67 bf df 91 db bd 54 7a 1e 3f cc a2 08 bf
       -0.9044896 -0.10721182 0.6190541 -0.5337341
000170 04 fe b8 bf cd 77 b6 3d 30 70 16 3f 28 78 a6 3d
       -1.445252 0.08909569 0.58764935 0.08128387
000180 b8 31 c2 bf d9 6e 07 bd 4c 87 78 bf 2a 17 f4 be
       -1.5171423 -0.033064697 -0.97081447 -0.47673923
000190 aa 54 19 3f e7 e3 09 c0 90 4e 84 be 09 36 c6 3e
       0.5989481 -2.154535 -0.25841188 0.387131
0001a0 da 11 ed be 0b 2a 58 be e0 19 17 bf 32 05 f0 be
       -0.46302682 -0.21109788 -0.5902386 -0.46878964
0001b0 61 a6 d0 3e a7 b9 f9 be ec 74 00 be b1 76 1b 3f
       0.40751937 -0.48774454 -0.12544602 0.60727984
0001c0 38 c4 80 3f ce c6 60 be 5d 10 1f be 1c 3e a3 be
       1.0059881 -0.21950838 -0.15533586 -0.31883323
0001d0 01 86 d6 3e 16 45 96 bd f5 e3 d3 3f a7 99 ab be
       0.41899112 -0.07337396 1.6553942 -0.33515665
0001e0 05 58 d8 be 56 ce b6 3f 25 e0 2d bf 0d 89 68 3f
       -0.42254654 1.4281719 -0.6792014 0.9083412
0001f0 d3 b9 15 3f d2 36 79 3f d3 f5 b3 bf 64 89 01 be
       0.5848667 0.97349274 -1.4059395 -0.12650067
000200 5b df 01 3f 2d c6 3d 3f 87 7c 91 3c 0c 49 1c 3e
       0.5073144 0.7413052 0.017759575 0.1526224
000210 4e a4 c2 3e 98 de 41 be a3 8e d8 be 72 45 ff 3e
       0.3801598 -0.18932569 -0.42296323 0.4985767
000220 cf 1e 00 bf c4 9e 53 b9 ce 99 06 3c da 71 15 3e
       -0.5004701 -0.00020181673 0.008215381 0.14594212
000230 57 ed 3e be 8c 82 4e 3e ed 86 34 3e d8 93 cd be
       -0.18645225 0.20166987 0.17629595 -0.40151858
000240 99 8c 17 3f ef f7 3a 3f c4 b7 b9 3c e1 06 92 3e
       0.5919891 0.73034567 0.022670634 0.28520873
000250 34 d7 95 3e 38 08 ca be bb 72 4b 3f 3d b1 02 3f
       0.2926575 -0.39459395 0.7947194 0.51051694
000260 13 19 8a 3e 36 ee a9 be c0 ea a6 3e 43 38 74 be
       0.26972255 -0.33189553 0.32600975 -0.23849587
000270 ec fd c1 3e 3e 45 f9 3d 7c 46 48 be 4b ed 71 3d
       0.3788904 0.1217141 -0.19558138 0.05906419
000280 0c df be be c9 33 c5 3c 3b 02 4b 3f 39 48 56 3e
       -0.37279546 0.024072545 0.7930028 0.20925988
000290 86 dc 9f 3e a8 79 b5 be 14 84 06 bf 8e bd 14 bf
       0.31222934 -0.3544438 -0.52545285 -0.5810174
0002a0 f1 b0 73 be 8a 8a 66 be 8a ec fc 3e 41 56 c0 3e
       -0.23797967 -0.22513786 0.49399215 0.37565807
0002b0 ab 96 9a 3e cc b2 6d bf e9 d5 a5 bf 09 53 87 bf
       0.30193076 -0.9285095 -1.2955905 -1.0572215
0002c0 54 7f 6c 3e b8 a2 71 bf f6 c1 8d bf 95 35 78 be
       0.23095447 -0.94388914 -1.1074817 -0.2423919
0002d0 de 9f f2 be fa 74 f8 3d 6f 2b 84 3e f0 5b 37 3f
       -0.47387594 0.121316865 0.25814387 0.7162466
0002e0 b2 19 06 bd 65 2b 4b be 18 29 50 3f cb e8 00 3e
       -0.03273935 -0.19840772 0.81312704 0.12588803
0002f0 ff 2c b6 bc 30 26 79 3e 0d 40 91 be 06 ed 31 be
       -0.022238253 0.24330974 -0.2836918 -0.17375574
000300 46 53 82 bb 7a c1 53 be 32 ac 81 bf 41 c6 c3 be
       -0.003977212 -0.20679274 -1.0130675 -0.38237193
000310 2e f2 49 3e 50 a3 19 be d9 e8 8e 3e ec 10 e9 bf
       0.1972129 -0.15003705 0.27912024 -1.8208289
000320 22 40 e1 3d fd 73 30 3c 44 0f c9 3d cd fb d1 be
       0.109985605 0.010769841 0.09817365 -0.4101242
000330 2d 06 38 3c f1 da f0 be 4a df 77 bf 2d c9 8f be
       0.011231941 -0.4704204 -0.9682509 -0.28083172
000340 98 b2 b8 bd cd 62 7b 3e 76 34 7d 3e f6 b6 a6 3e
       -0.09018439 0.24549408 0.24727044 0.32561463
000350 ac 5e 92 be 6f 87 49 be 0d 7c 33 be 40 88 84 bb
       -0.28587854 -0.1968057 -0.1752779 -0.0040445626
000360 9f 7f 2d bf e1 a4 58 be 1f d3 eb 3e 0a ac 5d 3f
       -0.6777286 -0.21156646 0.4605951 0.86590636
000370 db 70 39 3f 5c eb a3 be 30 d6 93 3e d1 68 8b 3f
       0.7243783 -0.32015502 0.2887435 1.0891362
000380 61 1c b0 3e e2 7e 19 be ce 3d 3b 3f eb 4f dc be
       0.3439665 -0.14989808 0.7314118 -0.43029723
000390 e2 73 23 bd 50 0e c5 bf 81 85 93 3e e7 a6 b5 bd
       -0.039905436 -1.5394993 0.28812793 -0.08869725
0003a0 b8 91 05 3f 48 15 bf 3f c8 81 29 bd 9d 93 10 bf
       0.52175474 1.492837 -0.041383535 -0.5647524
0003b0 57 59 95 bd 60 6b 57 3e 80 a2 60 bf ca 3a 74 3f
       -0.07292431 0.21037054 -0.87747955 0.95402205
0003c0 ca ac b9 be ba 9c 04 be d0 6b 53 be f3 17 8c bd
       -0.3626464 -0.12950411 -0.20646596 -0.068405055
0003d0 a0 93 ee bd f4 f7 1a 3e 06 a7 52 bd d9 af a8 3e
       -0.11649251 0.15133649 -0.051428817 0.3294666
0003e0 16 7c bc 3e f6 8c 21 3e a8 f7 25 be 95 93 03 3f
       0.3681342 0.15776429 -0.16207755 0.5139707
0003f0 74 39 64 be fc a1 7d bf 41 0a 25 bf 09 c3 31 3e
       -0.22287542 -0.99075294 -0.6446877 0.17359556
